ai-nlp-chatbot/data.pth (torch, 5349 bytes, 6 tensors)

l1.weight f4 [8, 54]
00000000: 8a5f 203f f157 2a3f ba20 ef3e c618 82be
00000010: 052e 54be d7ad a3be 41d4 323e 68ba ec3e
00000020: 4480 f23e d516 cc3e 820b 5cbd 5a71 67be
00000030: d063 0b3f aa23 c6bd 576d b53e 4718 edbd
00000040: 47c8 54be f19e adbe dc89 c43e c773 92be
00000050: 68ff 013f b7d7 b7be 597a a9be 82e5 24bf
00000060: 18ed 333e bfc2 b3be 6966 ff3e 5c4c dc3e
00000070: 2825 253f 69e7 093e 8edb 96be da28 c6bd
00000080: 4386 ff3e 3e90 c03e c225 4f3f ec8a 38be
00000090: ac66 373f 9ccd 0e3f ef36 383e 36c1 c13e
000000a0: beeb 90be c45c d83e 2454 1c3d 7331 f53e
000000b0: 4474 aa3e 3f52 1a3f dbc5 8d3f a8aa 163f
000000c0: 4a83 b23e b9e5 163f 859a 08be ed14 cd3e
000000d0: ef69 af3e 6be2 063f 2ec9 423c ca70 043f
000000e0: 337f ed3e 351c 6bbe 42b9 db3c f640 9bbd
000000f0: 5706 b63e cb68 353e 972a 0b3f 2110 bc3e
00000100: 5abd 77be cf34 453f 5c79 113f 937b 753f
00000110: ed6a 0b3f 39d4 d63e 8876 42be 221f 79bd
00000120: 2dc6 dfbd 518a fcbe 3b41 a23e 5f9d d2be
00000130: 798b a7be dba2 a8bc 941b 303f 8f29 13be
00000140: 5d5f 2cbe 6adb 243f fe11 b93b 9694 a23e
00000150: 0b14 103d f96b 8a3f 7b87 c63d d645 9c3e
00000160: 3d62 383f 1525 f33e 5a5b cfbd 3e00 c93e
00000170: 4d24 b03e e622 9c3e 3593 d3bd 7a7b 6dbe
00000180: 8fba 283f 8b3a 053f 7215 323f 73b7 153f
00000190: 9711 61bc 8203 ce3d 2405 b3bd e72f debd
000001a0: 4dc0 d13e 5737 c4bd 839a a43e 1033 be3e
000001b0: 99a1 08be f0ee 413e 4c4f 85be 2865 483e
000001c0: a286 b03e 86da 333e b749 5dbe 4590 6cbe
000001d0: d222 d3be cd40 70be 9140 d13e 9f99 59be
000001e0: 53b5 4f3e 0f37 9cbe b725 2e3d 5752 b5bd
000001f0: ed06 133f 929d 8a3e 57a1 7d3e aec3 363f
00000200: d9ee 9fbe 5e9f 173f cdbf 3e3f c8e0 003f
00000210: 9fcd 84be 89c9 cb3e 92a0 ee3e dd03 763e
00000220: 2d22 a33e ee94 a23d ca4f 513e 8d8e c9be
00000230: e821 39be 4bd5 b5be b902 133e 50a3 22be
00000240: 9c00 3b3e 1340 d7be ece5 18be 0f0b 41bd
00000250: 2a99 b83e 829d ce3e 4f8a 59be 0b7d 523e
00000260: d27e aabe b7c6 5b3e a58d 2bbf 482c d6bd
00000270: 2d8e 953e aa65 023f bdbb 65be a5f1 e93e
00000280: 3d9e 8cbd 53a6 0f3e 75d2 1abe 597f 463d
00000290: cc25 fc3e 8a7c 29bd 0536 b03e b627 773e
000002a0: ca6f eb3e 16d9 9a3e 362f 0c3f e5fa 8d3e
000002b0: 9f0e ff3d 4adf 7bbe 7bf5 133f 3f4a ae3c
000002c0: 247f c93d 8b7a 5ebe ef20 243e 712f 8f3e
000002d0: 00d5 1a3f d84c 233e 0c17 1bbe 247f 253e
000002e0: 5e32 a53d 6097 0fbf ab48 be3c 92db 583d
000002f0: 3707 1e3f 60c5 06bd d347 2b3f ce81 a1be
00000300: efd7 133e 5025 2c3d ade9 99bd 00df d73e
00000310: 7120 873e 6380 55be 4194 db3e 75de 053f
00000320: 811c c83e dfc5 f33e c5fa ef3d 3294 2b3f
00000330: 639a fdbd 8ced a13d b9a2 853e a162 943e
00000340: 1c22 15bf 829f 07be 6baf 093f 7b1b 493f
00000350: 127c debe 055d 0b3f 9ebf d43e 6b64 8c3e
00000360: ca24 3a3f 1361 bf3e 2924 e3be 6015 0e3f
00000370: c9d1 843c 70d3 9bbe b909 15be c63f 9cbe
00000380: d12f 12bf 1439 69be 0a04 153f cbea 2ebe
00000390: d053 163d 398f fdbd 2b5a c03e f0eb 01be
000003a0: 5bd9 0a3f 7829 c5be ddf4 b53e de62 2e3f
000003b0: d5f2 1e3f 7001 3e3f 32a9 233f ab4f 263e
000003c0: fb25 53be 861a 033f d87b 773e 5b24 203e
000003d0: f432 5b3e b2bf b53d 5f16 c8bd bae3 cdbd
000003e0: 01fe 123f 6d5d d1be e581 f43e 3020 e9bd
000003f0: 40f9 393e 4a86 d8be 5de4 41be 7c7c a0bd
0.6264578 0.6654044 0.46704656 -0.25409526 -0.2072068 -0.31968567 0.17463781 0.46235967
0.47363484 0.3986117 -0.053721912 -0.22601834 0.54449177 -0.09674771 0.35434982 -0.11576896
-0.20779525 -0.33910325 0.38386428 -0.28603956 0.50780344 -0.35906765 -0.33101156 -0.644127
0.17570913 -0.35109517 0.4988282 0.43027008 0.6450982 0.13467182 -0.29464382 -0.096757606
0.4990712 0.37610048 0.8091699 -0.18021744 0.7164104 0.55782485 0.17989706 0.3784272
-0.28304857 0.42258275 0.03816618 0.4788929 0.3329183 0.6028175 1.1076006 0.5885415
0.3486579 0.5894428 -0.13340195 0.40055028 0.34260508 0.52689236 0.011888785 0.517346
0.46386108 -0.22959979 0.026821736 -0.0758075 0.35551712 0.17715757 0.5436186 0.36731055
-0.24193326 0.77033705 0.56825805 0.95891684 0.5446003 0.41958788 -0.18990529 -0.060820706
-0.10926471 -0.49324277 0.31690392 -0.4113569 -0.32723597 -0.020585468 0.6879208 -0.14371322
-0.16833253 0.643973 0.005647897 0.31753987 0.035175364 1.0814201 0.096938096 0.3052203
0.720249 0.4748923 -0.10124846 0.39257997 0.34402695 0.30495375 -0.10330812 -0.23191634
0.65909666 0.52042454 0.6956397 0.58483046 -0.013737104 0.10059263 -0.08741215 -0.108489804
0.40967026 -0.09580868 0.32149133 0.37148333 -0.13342895 0.18938804 -0.2603706 0.19569838
0.34477717 0.17563829 -0.21610151 -0.2310191 -0.41237503 -0.2346222 0.40869573 -0.21250008
0.20284013 -0.30510756 0.042516436 -0.08853596 0.5743244 0.27073342 0.24768578 0.71392334
-0.31236914 0.5922755 0.74511415 0.5034299 -0.25938126 0.39802197 0.4660688 0.24024911
0.31862012 0.07938562 0.20440593 -0.3936657 -0.1807934 -0.35514292 0.14356507 -0.15882611
0.18261951 -0.42041072 -0.14931458 -0.047129687 0.36054355 0.40354544 -0.21244167 0.20555513
-0.3329988 0.21462522 -0.6701301 -0.10457665 0.29210034 0.5093638 -0.22434898 0.45692173
-0.06866119 0.14028291 -0.15119345 0.048461292 0.49247587 -0.041378535 0.34416214 0.24136242
0.45983726 0.30243748 0.5475954 0.2773048 0.124539606 -0.24596897 0.5779645 0.021275638
0.09838703 -0.21726434 0.16028188 0.27965882 0.6048126 0.15947282 -0.1514551 0.16161782
0.080662474 -0.56090355 0.02322801 0.052943774 0.6172976 -0.032903075 0.6690647 -0.31544346
0.14437841 0.04202777 -0.07515273 0.42162323 0.26391938 -0.20849757 0.42886546 0.5229257
0.39084247 0.476119 0.11717752 0.67023003 -0.123829626 0.079066366 0.2610071 0.28981498
-0.5825517 -0.13244441 0.5378329 0.78557557 -0.43454033 0.5443881 0.41552442 0.27420363
0.72712386 0.3737875 -0.44363526 0.55501366 0.016213315 -0.30434752 -0.1455449 -0.30517405
-0.5710421 -0.2277568 0.5820929 -0.17081754 0.036701024 -0.12380833 0.37568793 -0.1268766
0.5423791 -0.385082 0.35538378 0.6811961 0.6208928 0.74220943 0.63930047 0.16241328
-0.20619957 0.51212347 0.24168336 0.15638869 0.21406156 0.088744536 -0.09769892 -0.10053201
0.5741883 -0.4089159 0.47755352 -0.113830924 0.18161488 -0.42289954 -0.1893477 -0.078362435

l1.bias f4 [8]
00000000: 42d7 c13e baf2 0e3f 4599 3d3f d94b 013f
00000010: 6006 403f 03fa 323f 556d 133f a8a5 123f
0.3785954 0.5583912 0.74061996 0.5050636 0.7500973 0.6991274 0.575887 0.5728402

l2.weight f4 [8, 8]
00000000: c301 0c3e 0aea 70bd 1b8a 953e f245 9e3f
00000010: f8c8 23bf 6dbc c3bd f10d a73f 5990 313f
00000020: 389f 5dbe b54b 96be aaac 97be 1226 e4bd
00000030: b02f 0b3e 7de0 843d 3adc 57be 6200 053d
00000040: 8988 8d3f 5a16 bd3f e3f8 f9be 2132 553f
00000050: 173a 17bd 7487 35bf 8a9f b2be ea1f aabe
00000060: e340 463f 74ea fc3e d30b d7be 62a5 02be
00000070: 8159 a53e 3d2c 833e 102a 613f a203 b73f
00000080: d66d 56bf 0731 84be c1ed 963f b2eb 3c3f
00000090: cfdd 0d3e 873a 213f 7dfa 193f 4aa1 82be
000000a0: e691 533e 22cf a63a 6f90 b53e 4225 933f
000000b0: 5162 f9be 5e1e 91be 625b 9b3f b5ac 1d3f
000000c0: 3ae3 b43e 6d54 47bf 3c3b 033f 275b 37bd
000000d0: d65e 703f 4939 953f 915c 553f 1cae 6e3f
000000e0: 2761 593f 2cfe aebc 1869 a53f 0826 0a3f
000000f0: aa45 8c3f 0f16 8d3e 132b 24bf 4ad3 9bbf
0.13672547 -0.058816947 0.2920693 1.2365096 -0.6397853 -0.09557424 1.305113 0.6936088
-0.21642768 -0.29354635 -0.2962392 -0.11140074 0.1359241 0.0648813 -0.21080104 0.03247107
1.1057292 1.4772446 -0.48822698 0.83279616 -0.036920633 -0.7090981 -0.34887344 -0.33227473
0.7744276 0.49397624 -0.4200121 -0.12758401 0.3229485 0.2561969 0.8795481 1.4297984
-0.83761346 -0.25818655 1.1791307 0.7379714 0.13854145 0.6297993 0.6014784 -0.2551368
0.20661125 0.0012726525 0.35461757 1.1495745 -0.48707822 -0.2834348 1.2137263 0.61591655
0.3532961 -0.778632 0.5126226 -0.044764664 0.9389471 1.1658107 0.8334437 0.9323442
0.8491387 -0.021361433 1.2922697 0.5396428 1.095876 0.27555892 -0.64128226 -1.2173855

l2.bias f4 [8]
00000000: e793 53be 708e 04be a52a 493f 4b08 67be
00000010: fbd4 e13d 7bd1 71be 3cb6 cf3d 51df 6bbb
-0.20661889 -0.1294496 0.78580695 -0.22561757 0.11026951 -0.23615067 0.1014218 -0.0035991261

l3.weight f4 [7, 8]
00000000: 729f babf 2f0d 543e fec7 813f 3278 2f3e
00000010: 1aa1 42bf 5e20 02bf d5f3 80bf 803e edbf
00000020: 97d8 73bf 22c5 133e 70fa 433e 50d0 61be
00000030: 6fc9 8cbf eecb 69bc 4b86 85bf 8fb4 143f
00000040: 5fed 0e3f f6ec 17bd 0ec7 aebf 7e41 7f3d
00000050: 2a1c b63e faad f43e 6173 b83d 3639 c6bf
00000060: eb2d 9fbf 85b4 253d 34e7 73bf 12b3 cfbf
00000070: 9ac8 293f 65e9 45bf 5e27 923e 8d07 4e3f
00000080: e90a 003f 9741 d5bc 3c76 5fbe 51c3 94bf
00000090: 00d4 503d 7143 4e3d acff 00bd f4a1 6c3d
000000a0: 8a21 623f efbf 37be b42a e13d d17f 4e3e
000000b0: 9f13 a2bf d521 8c3e 4920 5cbf 3d03 9bbf
000000c0: f2b6 74bf 668d 6c3e 9ce8 12bf 0081 973e
000000d0: b088 62bf d65e f0be 5efc f93e e47d acbe
-1.4579909 0.20708154 1.0139158 0.17135695 -0.7602707 -0.5083064 -1.0074412 -1.8534698
-0.95252365 0.14430669 0.19138503 -0.22052121 -1.0998973 -0.014269812 -1.0431608 0.5808801
0.5583095 -0.037091218 -1.3654497 0.062318318 0.35568362 0.47788984 0.09006382 -1.5486209
-1.2435888 0.04045536 -0.9527466 -1.6226523 0.6632172 -0.77309257 0.2854566 0.8048027
0.5001665 -0.026032252 -0.21822447 -1.1622106 0.05098343 0.050357286 -0.031493828 0.057771638
0.88332427 -0.1794431 0.10994473 0.20165946 -1.2662238 0.27369562 -0.85986763 -1.2110363
-0.9559165 0.23100814 -0.57386184 0.29590607 -0.8848982 -0.46947354 0.48825353 -0.33689797

l3.bias f4 [7]
00000000: 8551 303f dad1 acbd f92c e1bd 0411 2e3f
00000010: d8c0 09bf cc52 e4be 7822 3e3e
0.6887439 -0.084384635 -0.10994906 0.67994714 -0.5380988 -0.4459442 0.18567836
